snack_model.tflite (tflite, 441728 bytes, 10 tensors)

sequential_1/dense_3/BiasAdd/ReadVariableOp/resource f4 [2]
000000 7c 6a 73 3c 7b 6a 73 bc
       0.014856931 -0.01485693

sequential_1/dense_2/BiasAdd/ReadVariableOp/resource f4 [64]
000000 4a ed 92 ba 92 b3 20 bb 7f 69 81 bb 93 05 c3 bb
       -0.0011209634 -0.0024521095 -0.0039493437 -0.0059515922
000010 7c 8e ca bb 35 72 c6 ba b7 b8 fa 3a 5b 28 c3 bb
       -0.0061815362 -0.0015140238 0.0019128536 -0.0059557385
000020 bf 15 c3 bb 95 eb b3 bb 89 f2 95 ba d1 56 9d bb
       -0.00595352 -0.00549073 -0.0011440079 -0.004801609
000030 8b 2b c3 bb bf 17 f3 ba 44 0b c3 bb 9b d9 a8 bb
       -0.0059561185 -0.0018546506 -0.0059522707 -0.0051528937
000040 40 3f 45 39 e8 28 c3 bb 95 2b c3 bb 9d b0 04 bc
       0.00018810946 -0.005955804 -0.005956123 -0.0080987485
000050 b8 09 b4 bb 3f 49 97 3c 7d da 2a bb 0f 2a c3 bb
       -0.0054943226 0.018467544 -0.002607017 -0.0059559415
000060 98 26 c3 bb e3 a9 61 bb 29 a7 e5 bb 67 26 c3 bb
       -0.0059555285 -0.0034433536 -0.0070084524 -0.0059555057
000070 d1 eb c1 bb 1c c4 41 ba 7f ff f7 ba b9 b9 8b ba
       -0.005918004 -0.00073915883 -0.0018920748 -0.0010660208
000080 ae 3b a5 bb 81 2a c3 bb c3 9b 8e ba 04 08 3d bb
       -0.0050425148 -0.0059559946 -0.0010880161 -0.002884389
000090 f3 27 c3 bb 66 26 ae bb 02 3d a5 bb 39 2b c3 bb
       -0.00595569 -0.005314636 -0.005042673 -0.0059560803
0000a0 07 d8 1e bb 6e 40 95 bb 5b 06 a9 bb a2 bf a6 bb
       -0.002423765 -0.0045547998 -0.0051582283 -0.0050887624
0000b0 a1 23 c3 bb 8a 2f a5 bb 6a f8 99 3c ae 2b c3 bb
       -0.005955175 -0.0050410675 0.01879521 -0.0059561348
0000c0 d2 0d 5d bb a6 a2 a6 bb 99 bf ed ba 32 24 c3 bb
       -0.0033730161 -0.005085307 -0.0018138766 -0.0059552426
0000d0 3f 2b c3 bb b9 92 a6 bb 9d 27 cb bb 27 e3 ae bb
       -0.005956083 -0.0050834087 -0.0061997906 -0.0053371373
0000e0 da 00 a4 bb 0d 17 c3 bb 06 94 80 bb e6 2a 55 bb
       -0.0050049843 -0.0059536756 -0.003923896 -0.003252679
0000f0 d8 29 c3 bb f4 c9 88 bb 1a 5d 8e bb c6 e6 a8 bb
       -0.005955916 -0.0041744653 -0.0043445947 -0.0051544635

sequential_1/conv2d_5/BiasAdd/ReadVariableOp/resource f4 [64]
000000 4f 84 8f bb 75 1d c1 3b a2 8e 07 bc 25 7a ca bb
       -0.004379786 0.005893404 -0.008273752 -0.0061791115
000010 f6 e8 eb 3b b6 22 1f bc 9a 0d 50 bb 99 71 98 3b
       0.007199402 -0.009712866 -0.0031746388 0.004652214
000020 3f 54 a8 3a bb d4 98 ba c3 20 84 bb 3b c7 a1 bb
       0.001284249 -0.0011660078 -0.004032226 -0.00493708
000030 61 49 09 3c e8 d2 21 3b 1d d6 37 3b b0 b3 20 3c
       0.008379311 0.002469236 0.0028051205 0.009808466
000040 12 16 a5 bb d8 33 5b bb 97 ed ec bb 28 30 9d bb
       -0.0050380314 -0.003344765 -0.0072304714 -0.0047970004
000050 1c bf 2c bb 27 96 86 3b 55 55 d1 3b f9 aa 7b 3b
       -0.0026359027 0.004107255 0.006388346 0.0038401468
000060 ee 81 87 b9 41 58 a1 bb 6f 79 8c 3b 1e 78 23 ba
       -0.00025846012 -0.0049238508 0.004286937 -0.00062358554
000070 e8 eb 5b 3c 30 db fd bb 71 89 fd ba d6 e4 ff 3b
       0.013422944 -0.0077470765 -0.0019343329 0.007809262
000080 e3 5d 02 bc 4a 95 5a 39 44 9c 25 38 ae fd da ba
       -0.007956955 0.00020845715 3.94846e-05 -0.0016707683
000090 ab eb 20 3c 0c 1c 53 3b f2 ab 70 3b 44 9e f3 3a
       0.009821813 0.0032212762 0.003672358 0.0018586596
0000a0 a3 a0 b8 39 a6 ea d0 bb ce 00 46 3b d0 b4 32 3c
       0.00035214899 -0.0063756285 0.0030212882 0.010907367
0000b0 f7 f2 b6 3b a8 c9 00 bc 05 fb d0 bb e1 a0 11 bb
       0.005583163 -0.007860579 -0.00637758 -0.0022221135
0000c0 10 ea a4 3b 08 98 c8 3b b6 fd 94 3a ca d1 c9 3b
       0.0050327852 0.006121639 0.0011367116 0.006159042
0000d0 e7 20 06 bc 13 82 1d ba 01 87 03 ba 30 1c 02 bc
       -0.0081865555 -0.0006008457 -0.00050173706 -0.007941291
0000e0 20 ae 21 37 4f 35 e1 3b 3e ee 6c bb 44 cd 15 ba
       9.636889e-06 0.00687281 -0.0036152746 -0.0005714486
0000f0 d4 c4 80 bb 4d af 91 bb 5d f5 ce 3b e4 a0 b6 ba
       -0.0039297137 -0.0044459463 0.0063158707 -0.0013933447

sequential_1/conv2d_4/BiasAdd/ReadVariableOp/resource f4 [32]
000000 da cf 9c 3c 8b 61 78 bb 6e 1a 9c bb fd f7 1c 3b
       0.01914208 -0.0037899937 -0.004763893 0.0023951523
000010 54 4a c4 ba b6 30 b3 bb 85 82 88 ba 1d e1 46 bc
       -0.0014975765 -0.0054684533 -0.0010414874 -0.012138632
000020 c6 69 b9 bb a4 94 6a bc 86 09 36 bc 36 4f 8a bb
       -0.005658361 -0.014317665 -0.011110669 -0.0042208685
000030 39 cc 04 3c b7 7a 98 3b 18 0b fb 3b 11 38 0b bb
       0.008105331 0.0046533006 0.0076612346 -0.0021243135
000040 ef 80 04 bc 37 0f 2b bc b4 dc 10 bc 10 e4 22 ba
       -0.008087381 -0.010440639 -0.008841682 -0.00062137935
000050 c9 64 6e bc 37 79 f8 3b ed 56 ba 3b 68 13 35 bb
       -0.014550396 0.0075828093 0.005686632 -0.0027629975
000060 47 42 af b9 43 a0 5b 3c f6 b8 1c 3c 15 f2 57 3a
       -0.00033427982 0.013404909 0.0095655825 0.0008237672
000070 2e 33 29 3c 56 ef b2 bb bf f0 27 3c 70 9a 93 3b
       0.010327144 -0.00546066 0.010250269 0.0045044944

sequential_1/conv2d_3/BiasAdd/ReadVariableOp/resource f4 [16]
000000 c4 5a 63 3c 56 c4 25 bc 52 1d d0 3c f4 ed c9 3c
       0.013876621 -0.010117611 0.025404606 0.024649598
000010 67 8f 19 3c 57 10 d4 ba f7 b2 e3 3b f4 d6 1c bc
       0.009372569 -0.0016179186 0.0069488245 -0.009572733
000020 f0 dc 41 3b cc 2e 39 bc ae 9e d5 bb 26 6e b5 bc
       0.0029581152 -0.011302661 -0.0065191602 -0.02214725
000030 39 e4 c0 bb a8 c3 1d 39 e3 dc c5 3c 59 9c 25 3c
       -0.0058865813 0.00015045574 0.024153179 0.010108077

sequential_1/dense_2/MatMul i1 [64, 6400] scale=0.0005356151 zero_point=0
000000 11 37 f6 cf 07 f6 14 32 f0 08 1e 33 e9 12 39 ec
       0.009105456 0.02945883 -0.0053561507 -0.02624514 0.0037493056 -0.0053561507 0.010712301 0.026780754 -0.008569841 0.0042849206 0.016068453 0.02731637 -0.012319147 0.009641072 0.03053006 -0.010712301
000010 ca e6 04 40 bf f1 c9 14 cd ec e0 06 dd 0c 09 c3
       -0.028923213 -0.013925992 0.0021424603 0.034279365 -0.03481498 -0.0080342265 -0.02945883 0.010712301 -0.02731637 -0.010712301 -0.017139683 0.0032136906 -0.018746527 0.006427381 0.004820536 -0.03267252
000020 2a 3d 20 d4 26 32 ce 07 c1 e7 c8 e6 cf 1c d2 fe
       0.022495834 0.03267252 0.017139683 -0.023567064 0.020353373 0.026780754 -0.026780754 0.0037493056 -0.03374375 -0.013390377 -0.029994445 -0.013925992 -0.02624514 0.014997222 -0.024638293 -0.0010712302
000030 22 fa d2 27 d1 21 ce 26 24 13 c7 09 07 c3 33 fd
       0.018210912 -0.0032136906 -0.024638293 0.020888988 -0.025173908 0.017675297 -0.026780754 0.020353373 0.019282144 0.010176687 -0.03053006 0.004820536 0.0037493056 -0.03267252 0.02731637 -0.0016068453
000040 f5 24 1e 25 26 db 31 ee 2f 2a 2e d6 ec fa c9 e5
       -0.005891766 0.019282144 0.016068453 0.019817758 0.020353373 -0.019817758 0.02624514 -0.009641072 0.025173908 0.022495834 0.024638293 -0.022495834 -0.010712301 -0.0032136906 -0.02945883 -0.014461607
000050 e2 19 e7 39 26 02 e4 f5 10 29 da 11 ea f5 e5 ff
       -0.016068453 0.013390377 -0.013390377 0.03053006 0.020353373 0.0010712302 -0.014997222 -0.005891766 0.008569841 0.021960218 -0.020353373 0.009105456 -0.011783532 -0.005891766 -0.014461607 -0.0005356151
000060 f2 db 1a 1f de fb f4 cf fe d4 da fe 07 1c f9 19
       -0.007498611 -0.019817758 0.013925992 0.016604068 -0.018210912 -0.0026780753 -0.006427381 -0.02624514 -0.0010712302 -0.023567064 -0.020353373 -0.0010712302 0.0037493056 0.014997222 -0.0037493056 0.013390377
000070 ea 1d 26 34 2b fd 19 21 11 2f d1 00 d5 ef 14 07
       -0.011783532 0.015532837 0.020353373 0.027851984 0.023031449 -0.0016068453 0.013390377 0.017675297 0.009105456 0.025173908 -0.025173908 0.0 -0.023031449 -0.009105456 0.010712301 0.0037493056
000080 04 10 e5 1b fc 0d ee 0c e8 29 2d 26 24 ee c7 32
       0.0021424603 0.008569841 -0.014461607 0.014461607 -0.0021424603 0.006962996 -0.009641072 0.006427381 -0.012854762 0.021960218 0.024102679 0.020353373 0.019282144 -0.009641072 -0.03053006 0.026780754
000090 c7 d2 19 12 12 31 05 d6 30 d1 29 e4 d9 d8 1d 0c
       -0.03053006 -0.024638293 0.013390377 0.009641072 0.009641072 0.02624514 0.0026780753 -0.022495834 0.025709525 -0.025173908 0.021960218 -0.014997222 -0.020888988 -0.021424603 0.015532837 0.006427381
0000a0 d3 06 1b 08 21 30 3a 09 da e1 00 e2 e8 0f de 29
       -0.024102679 0.0032136906 0.014461607 0.0042849206 0.017675297 0.025709525 0.031065674 0.004820536 -0.020353373 -0.016604068 0.0 -0.016068453 -0.012854762 0.0080342265 -0.018210912 0.021960218
0000b0 17 ee 20 de 31 f8 18 2b ec 1e 02 3f e8 1b e5 3b
       0.012319147 -0.009641072 0.017139683 -0.018210912 0.02624514 -0.0042849206 0.012854762 0.023031449 -0.010712301 0.016068453 0.0010712302 0.03374375 -0.012854762 0.014461607 -0.014461607 0.03160129
0000c0 0d d4 26 ec f0 0c f7 1a 29 fe 0b 45 01 36 fd f7
       0.006962996 -0.023567064 0.020353373 -0.010712301 -0.008569841 0.006427381 -0.004820536 0.013925992 0.021960218 -0.0010712302 0.005891766 0.03695744 0.0005356151 0.028923213 -0.0016068453 -0.004820536
0000d0 c6 22 09 fe 0d c2 2e c2 32 d4 df e4 26 22 e8 fb
       -0.031065674 0.018210912 0.004820536 -0.0010712302 0.006962996 -0.033208136 0.024638293 -0.033208136 0.026780754 -0.023567064 -0.017675297 -0.014997222 0.020353373 0.018210912 -0.012854762 -0.0026780753
0000e0 12 e2 0d d7 04 d6 19 ef ff ec ec e4 b2 e5 2d 15
       0.009641072 -0.016068453 0.006962996 -0.021960218 0.0021424603 -0.022495834 0.013390377 -0.009105456 -0.0005356151 -0.010712301 -0.010712301 -0.014997222 -0.041777976 -0.014461607 0.024102679 0.011247917
0000f0 f5 c5 0b 2d c8 bf e8 30 d3 ea 30 fb 19 f7 cf 05
       -0.005891766 -0.03160129 0.005891766 0.024102679 -0.029994445 -0.03481498 -0.012854762 0.025709525 -0.024102679 -0.011783532 0.025709525 -0.0026780753 0.013390377 -0.004820536 -0.02624514 0.0026780753

sequential_1/dense_3/MatMul f4 [2, 64]
000000 dc ab 00 3c 56 29 83 be 38 49 87 bd f4 d2 13 3e
       0.0078534745 -0.25617474 -0.06605762 0.14435941
000010 d6 50 81 3d 3e 81 59 bd 5b 0c 3e 3e 82 d3 72 bd
       0.06314246 -0.05310177 0.185594 -0.05928374
000020 1b 41 87 3e 15 50 09 be 33 e8 65 bd c3 65 83 be
       0.2641686 -0.13409455 -0.056129646 -0.25663576
000030 1b 38 7e 3e 0f 48 04 be 53 95 30 bc 39 8c 03 3e
       0.2482609 -0.12918113 -0.010777789 0.1284646
000040 07 be 11 bb ff 47 a2 3d d9 41 77 3e ba f4 9e bc
       -0.002223851 0.079238884 0.24146213 -0.019403804
000050 8c e0 a3 39 06 a3 e6 3c e0 04 ad bd da 30 93 3e
       0.00031257083 0.028153908 -0.084481955 0.28748208
000060 7d 23 58 3e 10 ec 97 be ea 60 33 bd fb d0 2f 3e
       0.21107288 -0.2967229 -0.043793596 0.17169563
000070 4b a6 8a 3d cb da 86 be 21 11 f3 3b c9 6d 6a bd
       0.06769999 -0.263388 0.0074178134 -0.057233606
000080 a8 26 48 3c 80 fd 1f 3e 90 39 7a be e7 2c 01 be
       0.012216248 0.15624046 -0.24436021 -0.12614785
000090 32 2c 08 3e aa 88 9c bd 45 38 1b 3e d3 e1 e0 3d
       0.13298109 -0.07643254 0.15158184 0.109805726
0000a0 58 54 5a be 84 65 07 3e 82 6f 46 be 62 13 a6 3d
       -0.21321237 0.13222319 -0.19378474 0.08109166
0000b0 6b db 1f 3e b5 ba 84 3e e3 c9 23 3e f5 e6 05 3e
       0.15611045 0.25923696 0.15994982 0.13076384
0000c0 93 b0 52 be 77 77 3a be 70 8a 86 be cb 6d 96 3d
       -0.2057517 -0.18209635 -0.26277494 0.0734516
0000d0 23 94 3f 3e 6c 39 43 be 2e 6a 28 3e 4b 2e 84 be
       0.18708853 -0.19064873 0.16446754 -0.2581657
0000e0 2b 55 6b be 50 ed fd bc db 2a 7a be 99 62 5b be
       -0.22981708 -0.030996948 -0.2443041 -0.21424331
0000f0 cb 89 f8 3d da 1e 00 3e c0 08 da 3b 29 ef 0c 3e
       0.12135657 0.12511769 0.006653875 0.13763107
000100 3d d1 a1 3d f6 d8 9d 3c 48 1d ba bb 04 99 bb bc
       0.07901237 0.019268494 -0.00567976 -0.022900112
000110 b8 d6 7a be b5 8f 7a 3e fb 21 80 3e e0 dc 49 be
       -0.24495971 0.24468882 0.25025925 -0.19713163
000120 52 f5 79 3e 80 ef 13 be 25 ef 70 3e 57 dc 26 be
       0.24409989 -0.14446831 0.23528726 -0.1629499
000130 ac 43 14 be ec f8 8c 3e 87 42 82 be 00 30 0f 3d
       -0.1447894 0.27533662 -0.2544138 0.034957886
000140 a8 40 0b 3e 13 a0 89 bd 88 06 2e be b3 57 20 3e
       0.13598883 -0.06719985 -0.16994679 0.15658455
000150 2f 0c 04 be cc 95 16 be 98 46 38 3e 23 21 84 be
       -0.12895273 -0.1470558 0.1799568 -0.2580653
000160 32 65 e5 3d 61 2e 68 3e e2 47 2e 3e 53 0d a8 3c
       0.11200942 0.22673942 0.17019609 0.020514166
000170 4d c2 9d 3d 65 63 7d 3c 39 fa 0c 3e df 75 f9 3d
       0.077030756 0.015465592 0.13767327 0.12180685
000180 96 b0 27 be 09 4e bb bd 86 de 0f 3e 83 6e 15 3e
       -0.16375956 -0.091457434 0.1404973 0.14592938
000190 67 60 ca 3b 7c d6 cc bd cd 1f e7 bd a6 a7 64 be
       0.006176043 -0.10001847 -0.112853624 -0.22329578
0001a0 03 56 97 bc 94 cc 19 3e aa 54 83 3e 6e 7a a3 3d
       -0.01847363 0.15019447 0.2565053 0.07982336
0001b0 47 8b 2a be 5a 41 62 3c b5 92 67 be 55 d3 95 be
       -0.16654693 0.013809526 -0.22614558 -0.29262796
0001c0 37 48 10 3e 11 55 23 be 1d 06 65 be c0 21 29 ba
       0.14090048 -0.15950419 -0.22365613 -0.00064518675
0001d0 35 c8 1a be b4 b0 89 be e5 77 bd 3d 0a cf 8d 3e
       -0.15115435 -0.26892626 0.09251384 0.2769702
0001e0 5b 2f 7f be 73 c4 58 bd a6 c5 80 be f7 70 67 3e
       -0.24920408 -0.052921724 -0.25150794 0.22601686
0001f0 44 5a 25 be 14 e8 0e 3e 15 ed 72 3e c1 52 56 3e
       -0.16147715 0.13955718 0.23723252 0.20930006

sequential_1/conv2d_3/Conv2D f4 [16, 3, 3, 3]
000000 ae 8c 10 be 4e 6f 09 3e 5b 9a bb 3d ec 9e 3c 3e
       -0.14116165 0.13421366 0.091603 0.18419999
000010 4a 83 3f 3e 34 06 d6 bc ca 2f 47 bd a0 da c6 bd
       0.18702427 -0.026126005 -0.04862956 -0.09709668
000020 9e f2 b8 3d 3d 84 ae bb 8a 83 95 bd 4c c2 c2 bd
       0.090306506 -0.0053258226 -0.0730048 -0.095097154
000030 b8 ac 89 3d ec 63 20 bd 43 88 f3 bd f6 ba f7 3d
       0.067223966 -0.039157793 -0.11891224 0.12096207
000040 52 c1 00 bd e3 ba 45 bd ec 58 06 be 3a 22 db 3d
       -0.031434365 -0.048273932 -0.13119859 0.106998876
000050 e1 b4 c1 bc db 5d a4 3d 1c 41 b9 3b 76 80 16 3e
       -0.02364582 0.08025714 0.0056535136 0.14697441
000060 06 c4 2d bd 64 8f 1c be 13 7d 12 be f5 89 da 3c
       -0.04242327 -0.15289074 -0.14305525 0.026677111
000070 13 6c 12 be 34 d0 e0 3d 13 d5 f0 3d f4 34 b8 bd
       -0.1429904 0.109772116 0.11759391 -0.08994475
000080 f9 c2 bd 3d 35 94 76 bd 85 43 9e bd 15 2c d5 3d
       0.09265704 -0.060199935 -0.07727722 0.104087986
000090 82 3c c0 3d 28 92 58 3d e9 0f d4 3d 70 67 21 be
       0.09386541 0.05287376 0.10354597 -0.15762115
0000a0 b6 9b 1c 3e 84 c5 78 bd 95 0c 66 bb f8 e3 9a 3d
       0.15293774 -0.06073524 -0.0035102714 0.07563013
0000b0 87 2c 09 3e 02 08 fa 3d 62 f3 bb bd 1f 9b e6 3d
       0.13395892 0.122085586 -0.09177281 0.11260056
0000c0 d9 16 e8 3c 1b 0e 64 3d e1 60 e0 bd 05 1d aa 3d
       0.028331207 0.055677515 -0.10955978 0.08306316
0000d0 b4 d7 ef bd ed 18 2b 3e e8 f6 88 bd 55 2b fd 3d
       -0.11711064 0.16708727 -0.06687719 0.123617806
0000e0 af 91 02 be a9 67 13 be fb 27 0b be be ba 45 3d
       -0.12750886 -0.14395012 -0.1358947 0.048273794
0000f0 68 8c 08 3d 2c f1 ce bd 5b a1 2b 3e 37 50 1c 3e
       0.033337027 -0.10104594 0.16760771 0.15264975
000100 e8 33 b4 3d a1 40 9f 3d e4 84 dc bd b0 ab 06 bc
       0.08798963 0.07775999 -0.107675344 -0.008219644
000110 49 17 c3 bd c6 42 8f bd 9d 13 11 be b6 8e 6b bd
       -0.09525926 -0.06995158 -0.14167638 -0.057509147
000120 6f 96 a3 3d 45 9c 59 3e d1 78 10 bd 64 46 4c bd
       0.07987677 0.21251018 -0.03527147 -0.049871817
000130 06 a1 13 be b7 4f 03 be f4 ac eb 3d 63 84 e7 bd
       -0.14416894 -0.12823378 0.115075976 -0.11304548
000140 13 84 0f 3e 24 86 08 3c f3 84 06 be 0a 56 1f 3d
       0.14015226 0.008332763 -0.13136654 0.038900413
000150 53 f0 f6 bd 08 d7 f4 bd be 82 26 3d 02 ab 11 3e
       -0.12057557 -0.119550765 0.04065203 0.1422539
000160 d2 a5 18 3d e7 68 16 be c3 cd fd 3d c2 3e 4f 3d
       0.037267514 -0.14688455 0.123927616 0.05059696
000170 32 cf 4c 3e 80 cc 03 bd 7e 3b d7 bd 60 f8 09 be
       0.20000914 -0.03217745 -0.10509394 -0.13473654
000180 58 e0 48 3d 3c d5 88 3d 0d 91 10 3e 68 aa e2 bd
       0.049042076 0.06681296 0.14117832 -0.11067659
000190 28 fa 52 3d 8d 91 29 be 7c 24 6a 3d ad c0 0c 3a
       0.0515081 -0.1655943 0.0571637 0.0005369287
0001a0 09 e5 c8 3d fc 21 c3 bd cc de d7 3d bd 0a 2b be
       0.0980931 -0.095279664 0.10540542 -0.16703315
0001b0 89 c4 93 bd 12 d8 51 3d a8 fc cc 3d 20 5d eb 3d
       -0.072152205 0.05123145 0.10009128 0.114923716
0001c0 47 06 8f 3d 3e 0f 67 3c 05 70 b7 3d 6b 61 77 3d
       0.06983619 0.014102755 0.08956913 0.06039564
0001d0 38 85 11 3e 70 5f 07 be 6e 4f b4 bd db 74 28 3e
       0.14210975 -0.1322 -0.088042125 0.16450827
0001e0 e3 84 1f 3e 50 1c ba 3c 4c ee 02 3d b0 25 47 3e
       0.15578036 0.022718579 0.03196554 0.1944797
0001f0 13 2a d6 ba c7 00 16 be 6f d9 38 be a9 ea 12 bd
       -0.0016339443 -0.14648734 -0.18051694 -0.03586832
000200 aa 26 2c be 2f c0 1b be a3 fa a1 3d 92 f1 05 3d
       -0.16811624 -0.15210031 0.07909133 0.032701083
000210 7a 2c aa 3d 92 bd 40 bd be c3 ec bd 70 a6 32 be
       0.083092645 -0.04705579 -0.11560772 -0.17446303
000220 6a ad 01 bd 0f 4a 3b 3e 5e bd 0e bd f9 ce 1a 3d
       -0.03165952 0.1828997 -0.034848563 0.03779504
000230 43 ce 50 bd 99 fa f1 bc 91 b2 2c 3e 10 ca 05 3b
       -0.050977957 -0.02953844 0.16864993 0.0020414628
000240 0a 6a 89 3d e8 a5 da 3d 8c bb d6 3d 7b bc 22 3e
       0.067096785 0.10676175 0.104849905 0.15892212
000250 c2 e2 b4 bd 35 43 8a 3d 8d 6b 30 be 2f c8 43 3e
       -0.08832313 0.067511 -0.17228527 0.19119333
000260 2f e9 bc bd c0 bd 0f be 62 cc f8 bd e9 7f 8a bc
       -0.09224164 -0.14037228 -0.12148358 -0.016906695
000270 18 60 f5 bc 73 26 56 3d dc ca 20 be bf c4 08 3e
       -0.029953048 0.05228276 -0.15702385 0.13356303
000280 70 bb cb 3d bf e4 31 3e ec ce 38 be 21 81 8d 3d
       0.0994786 0.17372416 -0.18047684 0.06909395
000290 2a fe ab bd 7e 2a d5 bb 04 99 91 3d 2d 09 8c 3d
       -0.08398087 -0.0065053096 0.071092635 0.06837688
0002a0 42 ff e6 3d 34 b2 12 be f2 cd ae 3d db 43 21 3e
       0.11279155 -0.14325792 0.08535375 0.15748541
0002b0 83 2e c8 bd c6 62 8e 3c 42 db fc bd 9f ad 32 be
       -0.097744964 0.017381083 -0.123465076 -0.17449044
0002c0 8e 7d b0 bd 52 e8 37 3d 2f 03 27 3e 33 0a 3c be
       -0.08617698 0.044899292 0.16309808 -0.18363266
0002d0 26 ac 2d 3e f9 9f 11 3d 29 27 66 3b e1 58 87 bd
       0.169602 0.035552952 0.0035118556 -0.06608749
0002e0 b8 ad 69 3c 39 85 61 3d e4 76 23 bc fc 0a ce 3d
       0.014262609 0.05505869 -0.009977076 0.10060689
0002f0 d4 76 9b 3d 38 c8 37 3e 3c 21 ec 3d 0b cb bf 3d
       0.07591024 0.17947471 0.115297765 0.09364899
000300 61 de a9 3c 2b 48 0c be e1 bf 42 3e 9e a2 c5 bb
       0.020735921 -0.13699405 0.19018508 -0.0060313484
000310 34 05 ad bd 81 a1 46 3d 86 d5 24 3e c4 37 aa bc
       -0.08448258 0.048493866 0.16097078 -0.020778544
000320 c5 67 1a be 34 6a a4 3c c8 92 81 3d 19 af 2d 3d
       -0.15078647 0.020070173 0.063268244 0.042403314
000330 63 48 e4 bd 7c 12 0d bd 72 eb 3b 3e 83 65 5f bd
       -0.11146619 -0.034441456 0.18351534 -0.05454017
000340 37 4b f3 3d a3 d4 21 3e ea 9e 36 bd 5b 49 27 3e
       0.118795805 0.1580377 -0.044585146 0.16336577
000350 ea 2e 34 3e e7 e6 3b bd 00 6d 2d 3e 1e 27 0e 3d
       0.17596021 -0.045874503 0.16936111 0.034705274
000360 31 09 94 3d f1 f7 de 3c 21 07 06 bd 76 3e c3 bd
       0.072283156 0.027217837 -0.032721642 -0.09533398
000370 a9 7b 27 be 0b 94 1e be 14 86 bf bd 6e 72 2d 3e
       -0.16355766 -0.15486161 -0.09351745 0.16938183
000380 df fd c1 3b 44 98 19 be cd 29 b2 bd 3a 4c 23 be
       0.0059201564 -0.14999491 -0.08699379 -0.15947047
000390 f6 8d 8f 3d 2b 5f de bc c0 f1 01 3d 34 96 85 3d
       0.07009499 -0.027144989 0.03172469 0.065227896
0003a0 64 46 90 3d ce f8 00 be 1b 2b 8a 3d aa b1 2b 3b
       0.07044676 -0.12594911 0.06746503 0.0026198425
0003b0 c5 e7 a3 bc cf b4 28 3e 57 13 ea 3d 35 7e e2 bc
       -0.020007977 0.16475223 0.1142947 -0.02764807
0003c0 64 fa 65 3c 6f da 53 3e cd 1f 0f be e3 88 0a 3e
       0.014036749 0.20688795 -0.13976975 0.1352878
0003d0 9f 67 64 bb f6 29 29 3e 38 ff f8 bd e6 25 14 3e
       -0.0034851802 0.16519913 -0.12158054 0.14467582
0003e0 de cf ea bd 7a f5 b6 3d cf 77 9c 3d 54 f6 ba 3c
       -0.11465429 0.0893354 0.07640039 0.022822537
0003f0 4e fd 6b 3c a0 fa 94 3d ee 1d a1 bd 69 95 6b 3d
       0.014403654 0.072743654 -0.07867037 0.057515536

sequential_1/conv2d_4/Conv2D i1 [32, 3, 3, 16]
000000 dc 02 41 61 1d bd 69 44 fd 3c a2 c6 36 54 aa db
       -36 2 65 97 29 -67 105 68 -3 60 -94 -58 54 84 -86 -37
000010 55 5a af 54 31 b0 d8 f6 dc b3 9f e1 18 33 17 49
       85 90 -81 84 49 -80 -40 -10 -36 -77 -97 -31 24 51 23 73
000020 45 ca 10 d9 17 d9 c9 13 b2 e0 b7 f0 a6 36 7b e9
       69 -54 16 -39 23 -39 -55 19 -78 -32 -73 -16 -90 54 123 -23
000030 45 c9 6c ed e1 bf 39 20 73 9a f5 d9 34 9a e4 15
       69 -55 108 -19 -31 -65 57 32 115 -102 -11 -39 52 -102 -28 21
000040 f5 e3 51 b0 63 0c b5 02 10 05 00 f6 19 62 61 f6
       -11 -29 81 -80 99 12 -75 2 16 5 0 -10 25 98 97 -10
000050 ca 5c 0a 6a f9 e0 ce bc f4 9d 73 42 9a 18 41 d1
       -54 92 10 106 -7 -32 -50 -68 -12 -99 115 66 -102 24 65 -47
000060 7f e2 3d eb 2e 40 18 4d 3e 55 51 b2 cd fd 71 52
       127 -30 61 -21 46 64 24 77 62 85 81 -78 -51 -3 113 82
000070 32 d5 af bf ae ad f3 53 04 1c 44 e5 4e e2 6b f1
       50 -43 -81 -65 -82 -83 -13 83 4 28 68 -27 78 -30 107 -15
000080 41 59 4c de b4 01 ce ee e0 be d2 e2 21 c0 c8 a7
       65 89 76 -34 -76 1 -50 -18 -32 -66 -46 -30 33 -64 -56 -89
000090 fc c3 cc 1a f6 30 11 a7 f1 b1 15 fe 28 4f fd c2
       -4 -61 -52 26 -10 48 17 -89 -15 -79 21 -2 40 79 -3 -62
0000a0 5e a5 8f 10 cf 0d fc 19 c9 ed 0b 4c fb 92 93 c6
       94 -91 -113 16 -49 13 -4 25 -55 -19 11 76 -5 -110 -109 -58
0000b0 39 c5 96 a9 62 a9 a4 44 98 52 47 00 21 55 45 b1
       57 -59 -106 -87 98 -87 -92 68 -104 82 71 0 33 85 69 -79
0000c0 9c 2b 81 af ae 2c fe 5e 0c 1a fa 4b 8e 43 54 fd
       -100 43 -127 -81 -82 44 -2 94 12 26 -6 75 -114 67 84 -3
0000d0 97 f8 c1 8f 99 cc 23 50 ab ff 10 eb f1 05 dd 2c
       -105 -8 -63 -113 -103 -52 35 80 -85 -1 16 -21 -15 5 -35 44
0000e0 a1 fa 18 b2 69 d9 b4 08 2d f3 20 91 d4 17 1a 9c
       -95 -6 24 -78 105 -39 -76 8 45 -13 32 -111 -44 23 26 -100
0000f0 94 97 5b 4e b4 ab 5b 13 de 4b c5 a0 0d 67 4d c6
       -108 -105 91 78 -76 -85 91 19 -34 75 -59 -96 13 103 77 -58

sequential_1/conv2d_5/Conv2D i1 [64, 3, 3, 32]
000000 04 61 99 5a 52 d3 2a 84 1f 32 a9 16 43 75 dc 54
       4 97 -103 90 82 -45 42 -124 31 50 -87 22 67 117 -36 84
000010 0a 08 cb 17 90 f6 f1 ed f7 3b 7d 64 30 31 c4 3e
       10 8 -53 23 -112 -10 -15 -19 -9 59 125 100 48 49 -60 62
000020 72 1d 35 f3 c1 47 6a 27 cc e2 62 3f 24 05 43 e5
       114 29 53 -13 -63 71 106 39 -52 -30 98 63 36 5 67 -27
000030 de f1 de 8e a9 99 5d 5e 6c 21 f6 17 f3 8d 2c 1a
       -34 -15 -34 -114 -87 -103 93 94 108 33 -10 23 -13 -115 44 26
000040 8f eb f1 d7 9a 62 55 cf 66 28 03 2d 53 42 4c b8
       -113 -21 -15 -41 -102 98 85 -49 102 40 3 45 83 66 76 -72
000050 51 dd de 6a 98 bc 1a a2 c4 de 10 43 46 a0 11 a9
       81 -35 -34 106 -104 -68 26 -94 -60 -34 16 67 70 -96 17 -87
000060 b3 d9 56 c1 40 f3 96 97 f8 8b ed e2 59 1d 78 5e
       -77 -39 86 -63 64 -13 -106 -105 -8 -117 -19 -30 89 29 120 94
000070 9f 99 f2 ae 4b e6 e8 19 5e 78 1b fb b3 35 bd ed
       -97 -103 -14 -82 75 -26 -24 25 94 120 27 -5 -77 53 -67 -19
000080 be 27 f8 0e ed 14 65 17 68 9b 2e e0 6a e9 6e 15
       -66 39 -8 14 -19 20 101 23 104 -101 46 -32 106 -23 110 21
000090 f8 b1 c4 9e ed 9e fd f8 fe 2b 37 91 06 61 a2 98
       -8 -79 -60 -98 -19 -98 -3 -8 -2 43 55 -111 6 97 -94 -104
0000a0 d8 4e c4 95 e2 8f 4b ca b7 d2 83 5d fb 0b 6f 87
       -40 78 -60 -107 -30 -113 75 -54 -73 -46 -125 93 -5 11 111 -121
0000b0 bc 34 67 f2 30 25 25 40 ae 52 c6 4f a7 4a 73 f2
       -68 52 103 -14 48 37 37 64 -82 82 -58 79 -89 74 115 -14
0000c0 59 18 ad 0c b9 14 06 08 ee 8d 1e aa 06 66 4d f1
       89 24 -83 12 -71 20 6 8 -18 -115 30 -86 6 102 77 -15
0000d0 9e 59 99 dd ed 03 46 a2 22 59 af eb 2e 63 bc ee
       -98 89 -103 -35 -19 3 70 -94 34 89 -81 -21 46 99 -68 -18
0000e0 6b f6 57 8f e4 b2 0b 48 e4 d1 68 3f 28 40 74 e5
       107 -10 87 -113 -28 -78 11 72 -28 -47 104 63 40 64 116 -27
0000f0 dc e8 31 b5 65 14 d4 69 c9 dc 17 38 e1 2e 44 b0
       -36 -24 49 -75 101 20 -44 105 -55 -36 23 56 -31 46 68 -80
